…
 91%| | 10/11 [01:07<00:01,  1.35s/it]
 91%| | 10/11 [01:07<00:01,  1.35s/it]
 91%| | 10/11 [01:07<00:01,  1.35s/it]
 91%| | 10/11 [01:07<00:01,  1.35s/it]
 91%| | 10/11 [01:07<00:01,  1.35s/it]
epoch: 14 	loss: 0.003388   	accuracy: 0.7528 	precision: 0.2314 	recall: 0.2049 	f1: 0.1824
epoch: 14 	loss: 0.031718   	accuracy: 0.7186 	precision: 0.1437 	recall: 0.2000 	f1: 0.1672
 91%| | 10/11 [01:07<00:01,  1.35s/it]
 91%| | 10/11 [01:07<00:01,  1.35s/it]
OptimizedModule(
  (_orig_mod): BertForSequenceClassification(
    (bert): BertModel(
      (embeddings): BertEmbeddings(
        (word_embeddings): Embedding(32784, 768)
        (position_embeddings): Embedding(512, 768)
        (token_type_embeddings): Embedding(2, 768)
        (LayerNorm): LayerNorm((768,), eps=1e-12, elementwise_affine=True)
        (dropout): Dropout(p=0.1, inplace=False)
      )
      (encoder): BertEncoder(
        (layer): ModuleList(
          (0-11): 12 x BertLayer(
            (attention): BertAttention(
              (self): BertSdpaSelfAttention(
                (query): Linear(in_features=768, out_features=768, bias=True)
                (key): Linear(in_features=768, out_features=768, bias=True)
                (value): Linear(in_features=768, out_features=768, bias=True)
                (dropout): Dropout(p=0.1, inplace=False)
              )
              (output): BertSelfOutput(
                (dense): Linear(in_features=768, out_features=768, bias=True)
                (LayerNorm): LayerNorm((768,), eps=1e-12, elementwise_affine=True)
                (dropout): Dropout(p=0.1, inplace=False)
              )
            )
            (intermediate): BertIntermediate(
              (dense): Linear(in_features=768, out_features=3072, bias=True)
              (intermediate_act_fn): GELUActivation()
            )
            (output): BertOutput(
              (dense): Linear(in_features=3072, out_features=768, bias=True)
              (LayerNorm): LayerNorm((768,), eps=1e-12, elementwise_affine=True)
              (dropout): Dropout(p=0.1, inplace=False)
            )
          )
        )
      )
      (pooler): BertPooler(
        (dense): Linear(in_features=768, out_features=768, bias=True)
        (activation): Tanh()
      )
    )
    (dropout): Dropout(p=0.1, inplace=False)
    (classifier): Linear(in_features=768, out_features=5, bias=True)
  )
)
<class 'torch._dynamo.eval_frame.OptimizedModule'>
<class 'transformers.models.bert.modeling_bert.BertForSequenceClassification'>
 91%| | 10/11 [01:07<00:01,  1.35s/it]