…
[2024-05-05 08:27:36,093] torch._dynamo.convert_frame: [WARNING]   File "/usr/local/lib/python3.10/dist-packages/torch/_dynamo/utils.py", line 244, in time_wrapper
epoch: 0 	loss: 0.007487   	accuracy: 0.4652 	precision: 0.1887 	recall: 0.1954 	f1: 0.1777
epoch: 0 	loss: 0.056073   	accuracy: 0.4192 	precision: 0.1798 	recall: 0.1675 	f1: 0.1686
epoch: 0 	loss: 0.067110   	accuracy: 0.4405 	precision: 0.2000 	recall: 0.1792 	f1: 0.1888
[2024-05-05 08:27:36,093] torch._dynamo.convert_frame: [WARNING]   File "/usr/local/lib/python3.10/dist-packages/torch/_dynamo/utils.py", line 244, in time_wrapper
OptimizedModule(
  (_orig_mod): BertForSequenceClassification(
    (bert): BertModel(
      (embeddings): BertEmbeddings(
        (word_embeddings): Embedding(32784, 768)
        (position_embeddings): Embedding(512, 768)
        (token_type_embeddings): Embedding(2, 768)
        (LayerNorm): LayerNorm((768,), eps=1e-12, elementwise_affine=True)
        (dropout): Dropout(p=0.1, inplace=False)
      )
      (encoder): BertEncoder(
        (layer): ModuleList(
          (0-11): 12 x BertLayer(
            (attention): BertAttention(
              (self): BertSelfAttention(
                (query): Linear(in_features=768, out_features=768, bias=True)
                (key): Linear(in_features=768, out_features=768, bias=True)
                (value): Linear(in_features=768, out_features=768, bias=True)
                (dropout): Dropout(p=0.1, inplace=False)
              )
              (output): BertSelfOutput(
                (dense): Linear(in_features=768, out_features=768, bias=True)
                (LayerNorm): LayerNorm((768,), eps=1e-12, elementwise_affine=True)
                (dropout): Dropout(p=0.1, inplace=False)
              )
            )
            (intermediate): BertIntermediate(
              (dense): Linear(in_features=768, out_features=3072, bias=True)
              (intermediate_act_fn): GELUActivation()
            )
            (output): BertOutput(
              (dense): Linear(in_features=3072, out_features=768, bias=True)
              (LayerNorm): LayerNorm((768,), eps=1e-12, elementwise_affine=True)
              (dropout): Dropout(p=0.1, inplace=False)
            )
          )
        )
      )
      (pooler): BertPooler(
        (dense): Linear(in_features=768, out_features=768, bias=True)
        (activation): Tanh()
      )
    )
    (dropout): Dropout(p=0.1, inplace=False)
    (classifier): Linear(in_features=768, out_features=5, bias=True)
  )
)
<class 'torch._dynamo.eval_frame.OptimizedModule'>
[2024-05-05 08:27:36,093] torch._dynamo.convert_frame: [WARNING]   File "/usr/local/lib/python3.10/dist-packages/torch/_dynamo/utils.py", line 244, in time_wrapper