…
       dtype=torch.bfloat16, grad_fn=<AddmmBackward0>), hidden_states=None, attentions=None), SequenceClassifierOutput(loss=tensor(0.7360, device='cuda:0', grad_fn=<NllLossBackward0>), logits=tensor([[ … device='cuda:0',
       dtype=torch.bfloat16, grad_fn=<AddmmBackward0>), hidden_states=None, attentions=None)]]
{'best-epoch': 0, 'loss': 0.06798735119047619, 'accuracy': 0.5416666666666666, 'precision': 0.18828976034858388, 'recall': 0.2652384091408482, 'f1': 0.1668115469930352}
OptimizedModule(
  (_orig_mod): BertForSequenceClassification(
    (bert): BertModel(
      (embeddings): BertEmbeddings(
        (word_embeddings): Embedding(32784, 768)
        (position_embeddings): Embedding(512, 768)
        (token_type_embeddings): Embedding(2, 768)
        (LayerNorm): LayerNorm((768,), eps=1e-12, elementwise_affine=True)
        (dropout): Dropout(p=0.1, inplace=False)
      )
      (encoder): BertEncoder(
        (layer): ModuleList(
          (0-11): 12 x BertLayer(
            (attention): BertAttention(
              (self): BertSdpaSelfAttention(
                (query): Linear(in_features=768, out_features=768, bias=True)
                (key): Linear(in_features=768, out_features=768, bias=True)
                (value): Linear(in_features=768, out_features=768, bias=True)
                (dropout): Dropout(p=0.1, inplace=False)
              )
              (output): BertSelfOutput(
                (dense): Linear(in_features=768, out_features=768, bias=True)
                (LayerNorm): LayerNorm((768,), eps=1e-12, elementwise_affine=True)
                (dropout): Dropout(p=0.1, inplace=False)
              )
            )
            (intermediate): BertIntermediate(
              (dense): Linear(in_features=768, out_features=3072, bias=True)
              (intermediate_act_fn): GELUActivation()
            )
            (output): BertOutput(
              (dense): Linear(in_features=3072, out_features=768, bias=True)
              (LayerNorm): LayerNorm((768,), eps=1e-12, elementwise_affine=True)
              (dropout): Dropout(p=0.1, inplace=False)
            )
          )
        )
      )
      (pooler): BertPooler(
        (dense): Linear(in_features=768, out_features=768, bias=True)
        (activation): Tanh()
      )
    )
    (dropout): Dropout(p=0.1, inplace=False)
    (classifier): Linear(in_features=768, out_features=5, bias=True)
  )
)
<class 'torch._dynamo.eval_frame.OptimizedModule'>
<class 'transformers.models.bert.modeling_bert.BertForSequenceClassification'>